…
device_id: 0
net: "lenet-0.prototxt"
I0408 12:35:41.206562 17303 solver.cpp:91] Creating training net from net file: lenet-0.prototxt
I0408 12:35:41.207424 17303 net.cpp:313] The NetState phase (0) differed from the phase (1) specified by a rule in layer irdata
I0408 12:35:41.207675 17303 net.cpp:49] Initializing net from parameters: 
name: "LeNet"
state {
  phase: TRAIN
}
layer {
  name: "irdata"
  type: "HDF5Data"
  top: "data"
  top: "labelC2C"
  include {
    phase: TRAIN
  }
  hdf5_data_param {
    source: "train-0.txt"
    batch_size: 40
  }
}
layer {
  name: "conv1"
  type: "Convolution"
  bottom: "data"
  top: "conv1"
  param {
    lr_mult: 1
  }
  param {
    lr_mult: 2
  }
  convolution_param {
    num_output: 500
    stride: 1
    weight_filler {
      type: "xavier"
    }
    bias_filler {
      type: "constant"
    }
    kernel_h: 1
    kernel_w: 20
  }
}
layer {
  name: "pool1"
  type: "Pooling"
  bottom: "conv1"
  top: "pool1"
  pooling_param {
    pool: MAX
    stride: 2
    kernel_h: 1
    kernel_w: 2
  }
}
layer {
  name: "relu1"
  type: "ReLU"
  bottom: "pool1"
  top: "pool1"
}
layer {
  name: "conv2"
  type: "Convolution"
  bottom: "pool1"
  top: "conv2"
  param {
    lr_mult: 1
  }
  param {
    lr_mult: 2
  }
  convolution_param {
    num_output: 100
    stride: 1
    weight_filler {
      type: "xavier"
    }
    bias_filler {
      type: "constant"
    }
    kernel_h: 1
    kernel_w: 20
  }
}
layer {
  name: "pool2"
  type: "Pooling"
  bottom: "conv2"
  top: "pool2"
  pooling_param {
    pool: MAX
    stride: 2
    kernel_h: 1
    kernel_w: 2
  }
}
layer {
  name: "relu2"
  type: "ReLU"
  bottom: "pool2"
  top: "pool2"
}
layer {
  name: "conv3"
  type: "Convolution"
  bottom: "pool2"
  top: "conv3"
  param {
    lr_mult: 1
  }
  param {
    lr_mult: 2
  }
  convolution_param {
    num_output: 100
    stride: 1
    weight_filler {
      type: "xavier"
    }
    bias_filler {
      type: "constant"
    }
    kernel_h: 1
    kernel_w: 20
  }
}
layer {
  name: "pool3"
  type: "Pooling"
  bottom: "conv3"
  top: "pool3"
  pooling_param {
    pool: MAX
    stride: 2
    kernel_h: 1
    kernel_w: 2
  }
}
layer {
  name: "relu3"
  type: "ReLU"
  bottom: "pool3"
  top: "pool3"
}
layer {
  name: "conv4"
  type: "Convolution"
  bottom: "pool3"
  top: "conv4"
  param {
    lr_mult: 1
  }
  param {
    lr_mult: 2
  }
  convolution_param {
    num_output: 100
    stride: 1
    weight_filler {
      type: "xavier"
    }
    bias_filler {
      type: "constant"
    }
    kernel_h: 1
    kernel_w: 20
  }
}
layer {
  name: "pool4"
  type: "Pooling"
  bottom: "conv4"
  top: "pool4"
  pooling_param {
    pool: MAX
    stride: 2
    kernel_h: 1
    kernel_w: 2
  }
}
layer {
  name: "relu4"
  type: "ReLU"
  bottom: "pool4"
  top: "pool4"
}
layer {
  name: "ip1"
  type: "InnerProduct"
  bottom: "pool4"
  top: "ip1"
  param {
    lr_mult: 1
  }
  param {
    lr_mult: 2
  }
  inner_product_param {
    num_output: 500
    weight_filler {
      type: "xavier"
    }
    bias_filler {
      type: "constant"
    }
  }
}
layer {
  name: "relu1"
  type: "ReLU"
  bottom: "ip1"
  top: "ip1"
}
layer {
  name: "ip2"
  type: "InnerProduct"
  bottom: "ip1"
  top: "result"
  param {
    lr_mult: 1
  }
  param {
    lr_mult: 2
  }
  inner_product_param {
    num_output: 2
    weight_filler {
      type: "xavier"
    }
    bias_filler {
      type: "constant"
    }
  }
}
layer {
  name: "softmax"
  type: "Softmax"
  bottom: "result"
  top: "softmax"
}
layer {
  name: "accuracy"
  type: "Accuracy"
  bottom: "result"
  bottom: "labelC2C"
  top: "accuracy"
}
layer {
  name: "infoGainLoss"
  type: "InfogainLoss"
  bottom: "softmax"
  bottom: "labelC2C"
  top: "infoGainLoss"
  infogain_loss_param {
    source: "H_labelC2C.binaryproto"
  }
}
I0408 12:35:41.207940 17303 layer_factory.hpp:77] Creating layer irdata
I0408 12:35:41.207973 17303 net.cpp:91] Creating Layer irdata
I0408 12:35:41.207989 17303 net.cpp:399] irdata -> data
I0408 12:35:41.208031 17303 net.cpp:399] irdata -> labelC2C
I0408 12:35:41.208070 17303 hdf5_data_layer.cpp:79] Loading list of HDF5 filenames from: train-0.txt
I0408 12:35:41.208159 17303 hdf5_data_layer.cpp:93] Number of HDF5 files: 2
I0408 12:35:41.209959 17303 hdf5.cpp:32] Datatype class: H5T_FLOAT
I0408 12:35:41.241997 17303 net.cpp:141] Setting up irdata
I0408 12:35:41.242060 17303 net.cpp:148] Top shape: 40 1 1 759 (30360)
I0408 12:35:41.242074 17303 net.cpp:148] Top shape: 40 1 1 1 (40)
I0408 12:35:41.242080 17303 net.cpp:156] Memory required for data: 121600
I0408 12:35:41.242097 17303 layer_factory.hpp:77] Creating layer labelC2C_irdata_1_split
I0408 12:35:41.242120 17303 net.cpp:91] Creating Layer labelC2C_irdata_1_split
I0408 12:35:41.242146 17303 net.cpp:425] labelC2C_irdata_1_split <- labelC2C
I0408 12:35:41.242166 17303 net.cpp:399] labelC2C_irdata_1_split -> labelC2C_irdata_1_split_0
I0408 12:35:41.242192 17303 net.cpp:399] labelC2C_irdata_1_split -> labelC2C_irdata_1_split_1
I0408 12:35:41.242249 17303 net.cpp:141] Setting up labelC2C_irdata_1_split
I0408 12:35:41.242264 17303 net.cpp:148] Top shape: 40 1 1 1 (40)
I0408 12:35:41.242272 17303 net.cpp:148] Top shape: 40 1 1 1 (40)
I0408 12:35:41.242279 17303 net.cpp:156] Memory required for data: 121920
I0408 12:35:41.242285 17303 layer_factory.hpp:77] Creating layer conv1
I0408 12:35:41.242322 17303 net.cpp:91] Creating Layer conv1
I0408 12:35:41.242331 17303 net.cpp:425] conv1 <- data
I0408 12:35:41.242341 17303 net.cpp:399] conv1 -> conv1
I0408 12:35:41.427260 17303 net.cpp:141] Setting up conv1
I0408 12:35:41.427345 17303 net.cpp:148] Top shape: 40 500 1 740 (14800000)
I0408 12:35:41.427355 17303 net.cpp:156] Memory required for data: 59321920
I0408 12:35:41.427409 17303 layer_factory.hpp:77] Creating layer pool1
I0408 12:35:41.427455 17303 net.cpp:91] Creating Layer pool1
I0408 12:35:41.427474 17303 net.cpp:425] pool1 <- conv1
I0408 12:35:41.427489 17303 net.cpp:399] pool1 -> pool1
I0408 12:35:41.427582 17303 net.cpp:141] Setting up pool1
I0408 12:35:41.427598 17303 net.cpp:148] Top shape: 40 500 1 370 (7400000)
I0408 12:35:41.427605 17303 net.cpp:156] Memory required for data: 88921920
I0408 12:35:41.427613 17303 layer_factory.hpp:77] Creating layer relu1
I0408 12:35:41.427646 17303 net.cpp:91] Creating Layer relu1
I0408 12:35:41.427664 17303 net.cpp:425] relu1 <- pool1
I0408 12:35:41.427681 17303 net.cpp:386] relu1 -> pool1 (in-place)
I0408 12:35:41.428087 17303 net.cpp:141] Setting up relu1
I0408 12:35:41.428110 17303 net.cpp:148] Top shape: 40 500 1 370 (7400000)
I0408 12:35:41.428117 17303 net.cpp:156] Memory required for data: 118521920
I0408 12:35:41.428124 17303 layer_factory.hpp:77] Creating layer conv2
I0408 12:35:41.428159 17303 net.cpp:91] Creating Layer conv2
I0408 12:35:41.428170 17303 net.cpp:425] conv2 <- pool1
I0408 12:35:41.428181 17303 net.cpp:399] conv2 -> conv2
I0408 12:35:41.440881 17303 net.cpp:141] Setting up conv2
I0408 12:35:41.440907 17303 net.cpp:148] Top shape: 40 100 1 351 (1404000)
I0408 12:35:41.440922 17303 net.cpp:156] Memory required for data: 124137920
I0408 12:35:41.440942 17303 layer_factory.hpp:77] Creating layer pool2
I0408 12:35:41.440955 17303 net.cpp:91] Creating Layer pool2
I0408 12:35:41.440963 17303 net.cpp:425] pool2 <- conv2
I0408 12:35:41.440973 17303 net.cpp:399] pool2 -> pool2
I0408 12:35:41.441045 17303 net.cpp:141] Setting up pool2
I0408 12:35:41.441061 17303 net.cpp:148] Top shape: 40 100 1 176 (704000)
I0408 12:35:41.441071 17303 net.cpp:156] Memory required for data: 126953920
I0408 12:35:41.441077 17303 layer_factory.hpp:77] Creating layer relu2
I0408 12:35:41.441092 17303 net.cpp:91] Creating Layer relu2
I0408 12:35:41.441099 17303 net.cpp:425] relu2 <- pool2
I0408 12:35:41.441112 17303 net.cpp:386] relu2 -> pool2 (in-place)
I0408 12:35:41.441383 17303 net.cpp:141] Setting up relu2
I0408 12:35:41.441403 17303 net.cpp:148] Top shape: 40 100 1 176 (704000)
I0408 12:35:41.441437 17303 net.cpp:156] Memory required for data: 129769920
I0408 12:35:41.441458 17303 layer_factory.hpp:77] Creating layer conv3
I0408 12:35:41.441488 17303 net.cpp:91] Creating Layer conv3
I0408 12:35:41.441498 17303 net.cpp:425] conv3 <- pool2
I0408 12:35:41.441515 17303 net.cpp:399] conv3 -> conv3
I0408 12:35:41.445464 17303 net.cpp:141] Setting up conv3
I0408 12:35:41.445489 17303 net.cpp:148] Top shape: 40 100 1 157 (628000)
I0408 12:35:41.445498 17303 net.cpp:156] Memory required for data: 132281920
I0408 12:35:41.445515 17303 layer_factory.hpp:77] Creating layer pool3
I0408 12:35:41.445528 17303 net.cpp:91] Creating Layer pool3
I0408 12:35:41.445538 17303 net.cpp:425] pool3 <- conv3
I0408 12:35:41.445554 17303 net.cpp:399] pool3 -> pool3
I0408 12:35:41.445619 17303 net.cpp:141] Setting up pool3
I0408 12:35:41.445634 17303 net.cpp:148] Top shape: 40 100 1 79 (316000)
I0408 12:35:41.445642 17303 net.cpp:156] Memory required for data: 133545920
I0408 12:35:41.445648 17303 layer_factory.hpp:77] Creating layer relu3
I0408 12:35:41.445664 17303 net.cpp:91] Creating Layer relu3
I0408 12:35:41.445673 17303 net.cpp:425] relu3 <- pool3
I0408 12:35:41.445683 17303 net.cpp:386] relu3 -> pool3 (in-place)
I0408 12:35:41.446087 17303 net.cpp:141] Setting up relu3
I0408 12:35:41.446108 17303 net.cpp:148] Top shape: 40 100 1 79 (316000)
I0408 12:35:41.446117 17303 net.cpp:156] Memory required for data: 134809920
I0408 12:35:41.446125 17303 layer_factory.hpp:77] Creating layer conv4
I0408 12:35:41.446146 17303 net.cpp:91] Creating Layer conv4
I0408 12:35:41.446156 17303 net.cpp:425] conv4 <- pool3
I0408 12:35:41.446167 17303 net.cpp:399] conv4 -> conv4
I0408 12:35:41.449982 17303 net.cpp:141] Setting up conv4
I0408 12:35:41.450006 17303 net.cpp:148] Top shape: 40 100 1 60 (240000)
I0408 12:35:41.450016 17303 net.cpp:156] Memory required for data: 135769920
I0408 12:35:41.450045 17303 layer_factory.hpp:77] Creating layer pool4
I0408 12:35:41.450067 17303 net.cpp:91] Creating Layer pool4
I0408 12:35:41.450078 17303 net.cpp:425] pool4 <- conv4
I0408 12:35:41.450094 17303 net.cpp:399] pool4 -> pool4
I0408 12:35:41.450163 17303 net.cpp:141] Setting up pool4
I0408 12:35:41.450178 17303 net.cpp:148] Top shape: 40 100 1 30 (120000)
I0408 12:35:41.450186 17303 net.cpp:156] Memory required for data: 136249920
I0408 12:35:41.450192 17303 layer_factory.hpp:77] Creating layer relu4
I0408 12:35:41.450211 17303 net.cpp:91] Creating Layer relu4
I0408 12:35:41.450219 17303 net.cpp:425] relu4 <- pool4
I0408 12:35:41.450228 17303 net.cpp:386] relu4 -> pool4 (in-place)
I0408 12:35:41.450651 17303 net.cpp:141] Setting up relu4
I0408 12:35:41.450673 17303 net.cpp:148] Top shape: 40 100 1 30 (120000)
I0408 12:35:41.450682 17303 net.cpp:156] Memory required for data: 136729920
I0408 12:35:41.450690 17303 layer_factory.hpp:77] Creating layer ip1
I0408 12:35:41.450708 17303 net.cpp:91] Creating Layer ip1
I0408 12:35:41.450717 17303 net.cpp:425] ip1 <- pool4
I0408 12:35:41.450732 17303 net.cpp:399] ip1 -> ip1
I0408 12:35:41.467794 17303 net.cpp:141] Setting up ip1
I0408 12:35:41.467825 17303 net.cpp:148] Top shape: 40 500 (20000)
I0408 12:35:41.467833 17303 net.cpp:156] Memory required for data: 136809920
I0408 12:35:41.467854 17303 layer_factory.hpp:77] Creating layer relu1
I0408 12:35:41.467869 17303 net.cpp:91] Creating Layer relu1
I0408 12:35:41.467880 17303 net.cpp:425] relu1 <- ip1
I0408 12:35:41.467900 17303 net.cpp:386] relu1 -> ip1 (in-place)
I0408 12:35:41.468185 17303 net.cpp:141] Setting up relu1
I0408 12:35:41.468204 17303 net.cpp:148] Top shape: 40 500 (20000)
I0408 12:35:41.468214 17303 net.cpp:156] Memory required for data: 136889920
I0408 12:35:41.468220 17303 layer_factory.hpp:77] Creating layer ip2
I0408 12:35:41.468255 17303 net.cpp:91] Creating Layer ip2
I0408 12:35:41.468264 17303 net.cpp:425] ip2 <- ip1
I0408 12:35:41.468278 17303 net.cpp:399] ip2 -> result
I0408 12:35:41.468462 17303 net.cpp:141] Setting up ip2
I0408 12:35:41.468479 17303 net.cpp:148] Top shape: 40 2 (80)
I0408 12:35:41.468508 17303 net.cpp:156] Memory required for data: 136890240
I0408 12:35:41.468523 17303 layer_factory.hpp:77] Creating layer result_ip2_0_split
I0408 12:35:41.468541 17303 net.cpp:91] Creating Layer result_ip2_0_split
I0408 12:35:41.468549 17303 net.cpp:425] result_ip2_0_split <- result
I0408 12:35:41.468559 17303 net.cpp:399] result_ip2_0_split -> result_ip2_0_split_0
I0408 12:35:41.468574 17303 net.cpp:399] result_ip2_0_split -> result_ip2_0_split_1
I0408 12:35:41.468641 17303 net.cpp:141] Setting up result_ip2_0_split
I0408 12:35:41.468657 17303 net.cpp:148] Top shape: 40 2 (80)
I0408 12:35:41.468667 17303 net.cpp:148] Top shape: 40 2 (80)
I0408 12:35:41.468674 17303 net.cpp:156] Memory required for data: 136890880
I0408 12:35:41.468680 17303 layer_factory.hpp:77] Creating layer softmax
I0408 12:35:41.468693 17303 net.cpp:91] Creating Layer softmax
I0408 12:35:41.468700 17303 net.cpp:425] softmax <- result_ip2_0_split_0
I0408 12:35:41.468713 17303 net.cpp:399] softmax -> softmax
I0408 12:35:41.469215 17303 net.cpp:141] Setting up softmax
I0408 12:35:41.469238 17303 net.cpp:148] Top shape: 40 2 (80)
I0408 12:35:41.469246 17303 net.cpp:156] Memory required for data: 136891200
I0408 12:35:41.469254 17303 layer_factory.hpp:77] Creating layer accuracy
I0408 12:35:41.469281 17303 net.cpp:91] Creating Layer accuracy
I0408 12:35:41.469291 17303 net.cpp:425] accuracy <- result_ip2_0_split_1
I0408 12:35:41.469303 17303 net.cpp:425] accuracy <- labelC2C_irdata_1_split_0
I0408 12:35:41.469316 17303 net.cpp:399] accuracy -> accuracy
…
