…
device_id: 0
net: "lenet-0.prototxt"
I0406 14:26:10.068379  8229 solver.cpp:91] Creating training net from net file: lenet-0.prototxt
I0406 14:26:10.069113  8229 net.cpp:313] The NetState phase (0) differed from the phase (1) specified by a rule in layer irdata
I0406 14:26:10.069345  8229 net.cpp:49] Initializing net from parameters: 
name: "LeNet"
state {
  phase: TRAIN
}
layer {
  name: "irdata"
  type: "HDF5Data"
  top: "data"
  top: "labelC2O"
  include {
    phase: TRAIN
  }
  hdf5_data_param {
    source: "train-0.txt"
    batch_size: 40
  }
}
layer {
  name: "conv1"
  type: "Convolution"
  bottom: "data"
  top: "conv1"
  param {
    lr_mult: 1
  }
  param {
    lr_mult: 2
  }
  convolution_param {
    num_output: 500
    stride: 1
    weight_filler {
      type: "xavier"
    }
    bias_filler {
      type: "constant"
    }
    kernel_h: 1
    kernel_w: 20
  }
}
layer {
  name: "pool1"
  type: "Pooling"
  bottom: "conv1"
  top: "pool1"
  pooling_param {
    pool: MAX
    stride: 2
    kernel_h: 1
    kernel_w: 2
  }
}
layer {
  name: "relu1"
  type: "ReLU"
  bottom: "pool1"
  top: "pool1"
}
layer {
  name: "conv2"
  type: "Convolution"
  bottom: "pool1"
  top: "conv2"
  param {
    lr_mult: 1
  }
  param {
    lr_mult: 2
  }
  convolution_param {
    num_output: 100
    stride: 1
    weight_filler {
      type: "xavier"
    }
    bias_filler {
      type: "constant"
    }
    kernel_h: 1
    kernel_w: 20
  }
}
layer {
  name: "pool2"
  type: "Pooling"
  bottom: "conv2"
  top: "pool2"
  pooling_param {
    pool: MAX
    stride: 2
    kernel_h: 1
    kernel_w: 2
  }
}
layer {
  name: "relu2"
  type: "ReLU"
  bottom: "pool2"
  top: "pool2"
}
layer {
  name: "conv3"
  type: "Convolution"
  bottom: "pool2"
  top: "conv3"
  param {
    lr_mult: 1
  }
  param {
    lr_mult: 2
  }
  convolution_param {
    num_output: 100
    stride: 1
    weight_filler {
      type: "xavier"
    }
    bias_filler {
      type: "constant"
    }
    kernel_h: 1
    kernel_w: 20
  }
}
layer {
  name: "pool3"
  type: "Pooling"
  bottom: "conv3"
  top: "pool3"
  pooling_param {
    pool: MAX
    stride: 2
    kernel_h: 1
    kernel_w: 2
  }
}
layer {
  name: "relu3"
  type: "ReLU"
  bottom: "pool3"
  top: "pool3"
}
layer {
  name: "conv4"
  type: "Convolution"
  bottom: "pool3"
  top: "conv4"
  param {
    lr_mult: 1
  }
  param {
    lr_mult: 2
  }
  convolution_param {
    num_output: 100
    stride: 1
    weight_filler {
      type: "xavier"
    }
    bias_filler {
      type: "constant"
    }
    kernel_h: 1
    kernel_w: 20
  }
}
layer {
  name: "pool4"
  type: "Pooling"
  bottom: "conv4"
  top: "pool4"
  pooling_param {
    pool: MAX
    stride: 2
    kernel_h: 1
    kernel_w: 2
  }
}
layer {
  name: "relu4"
  type: "ReLU"
  bottom: "pool4"
  top: "pool4"
}
layer {
  name: "ip1"
  type: "InnerProduct"
  bottom: "pool4"
  top: "ip1"
  param {
    lr_mult: 1
  }
  param {
    lr_mult: 2
  }
  inner_product_param {
    num_output: 500
    weight_filler {
      type: "xavier"
    }
    bias_filler {
      type: "constant"
    }
  }
}
layer {
  name: "relu1"
  type: "ReLU"
  bottom: "ip1"
  top: "ip1"
}
layer {
  name: "ip2"
  type: "InnerProduct"
  bottom: "ip1"
  top: "result"
  param {
    lr_mult: 1
  }
  param {
    lr_mult: 2
  }
  inner_product_param {
    num_output: 2
    weight_filler {
      type: "xavier"
    }
    bias_filler {
      type: "constant"
    }
  }
}
layer {
  name: "softmax"
  type: "Softmax"
  bottom: "result"
  top: "softmax"
}
layer {
  name: "accuracy"
  type: "Accuracy"
  bottom: "result"
  bottom: "labelC2O"
  top: "accuracy"
}
layer {
  name: "infoGainLoss"
  type: "InfogainLoss"
  bottom: "softmax"
  bottom: "labelC2O"
  top: "infoGainLoss"
  infogain_loss_param {
    source: "H_labelC2O.binaryproto"
  }
}
I0406 14:26:10.069643  8229 layer_factory.hpp:77] Creating layer irdata
I0406 14:26:10.069689  8229 net.cpp:91] Creating Layer irdata
I0406 14:26:10.069701  8229 net.cpp:399] irdata -> data
I0406 14:26:10.069737  8229 net.cpp:399] irdata -> labelC2O
I0406 14:26:10.069773  8229 hdf5_data_layer.cpp:79] Loading list of HDF5 filenames from: train-0.txt
I0406 14:26:10.069862  8229 hdf5_data_layer.cpp:93] Number of HDF5 files: 2
I0406 14:26:10.071383  8229 hdf5.cpp:32] Datatype class: H5T_FLOAT
I0406 14:26:10.147786  8229 net.cpp:141] Setting up irdata
I0406 14:26:10.147853  8229 net.cpp:148] Top shape: 40 1 1 759 (30360)
I0406 14:26:10.147864  8229 net.cpp:148] Top shape: 40 1 1 1 (40)
I0406 14:26:10.147871  8229 net.cpp:156] Memory required for data: 121600
I0406 14:26:10.147883  8229 layer_factory.hpp:77] Creating layer labelC2O_irdata_1_split
I0406 14:26:10.147902  8229 net.cpp:91] Creating Layer labelC2O_irdata_1_split
I0406 14:26:10.147913  8229 net.cpp:425] labelC2O_irdata_1_split <- labelC2O
I0406 14:26:10.147930  8229 net.cpp:399] labelC2O_irdata_1_split -> labelC2O_irdata_1_split_0
I0406 14:26:10.147950  8229 net.cpp:399] labelC2O_irdata_1_split -> labelC2O_irdata_1_split_1
I0406 14:26:10.147999  8229 net.cpp:141] Setting up labelC2O_irdata_1_split
I0406 14:26:10.148023  8229 net.cpp:148] Top shape: 40 1 1 1 (40)
I0406 14:26:10.148030  8229 net.cpp:148] Top shape: 40 1 1 1 (40)
I0406 14:26:10.148035  8229 net.cpp:156] Memory required for data: 121920
I0406 14:26:10.148041  8229 layer_factory.hpp:77] Creating layer conv1
I0406 14:26:10.148082  8229 net.cpp:91] Creating Layer conv1
I0406 14:26:10.148088  8229 net.cpp:425] conv1 <- data
I0406 14:26:10.148097  8229 net.cpp:399] conv1 -> conv1
I0406 14:26:10.296387  8229 net.cpp:141] Setting up conv1
I0406 14:26:10.296448  8229 net.cpp:148] Top shape: 40 500 1 740 (14800000)
I0406 14:26:10.296455  8229 net.cpp:156] Memory required for data: 59321920
I0406 14:26:10.296484  8229 layer_factory.hpp:77] Creating layer pool1
I0406 14:26:10.296505  8229 net.cpp:91] Creating Layer pool1
I0406 14:26:10.296516  8229 net.cpp:425] pool1 <- conv1
I0406 14:26:10.296527  8229 net.cpp:399] pool1 -> pool1
I0406 14:26:10.296613  8229 net.cpp:141] Setting up pool1
I0406 14:26:10.296627  8229 net.cpp:148] Top shape: 40 500 1 370 (7400000)
I0406 14:26:10.296644  8229 net.cpp:156] Memory required for data: 88921920
I0406 14:26:10.296651  8229 layer_factory.hpp:77] Creating layer relu1
I0406 14:26:10.296664  8229 net.cpp:91] Creating Layer relu1
I0406 14:26:10.296670  8229 net.cpp:425] relu1 <- pool1
I0406 14:26:10.296679  8229 net.cpp:386] relu1 -> pool1 (in-place)
I0406 14:26:10.297027  8229 net.cpp:141] Setting up relu1
I0406 14:26:10.297056  8229 net.cpp:148] Top shape: 40 500 1 370 (7400000)
I0406 14:26:10.297063  8229 net.cpp:156] Memory required for data: 118521920
I0406 14:26:10.297070  8229 layer_factory.hpp:77] Creating layer conv2
I0406 14:26:10.297088  8229 net.cpp:91] Creating Layer conv2
I0406 14:26:10.297101  8229 net.cpp:425] conv2 <- pool1
I0406 14:26:10.297111  8229 net.cpp:399] conv2 -> conv2
I0406 14:26:10.308473  8229 net.cpp:141] Setting up conv2
I0406 14:26:10.308507  8229 net.cpp:148] Top shape: 40 100 1 351 (1404000)
I0406 14:26:10.308514  8229 net.cpp:156] Memory required for data: 124137920
I0406 14:26:10.308529  8229 layer_factory.hpp:77] Creating layer pool2
I0406 14:26:10.308542  8229 net.cpp:91] Creating Layer pool2
I0406 14:26:10.308557  8229 net.cpp:425] pool2 <- conv2
I0406 14:26:10.308565  8229 net.cpp:399] pool2 -> pool2
I0406 14:26:10.308632  8229 net.cpp:141] Setting up pool2
I0406 14:26:10.308645  8229 net.cpp:148] Top shape: 40 100 1 176 (704000)
I0406 14:26:10.308650  8229 net.cpp:156] Memory required for data: 126953920
I0406 14:26:10.308656  8229 layer_factory.hpp:77] Creating layer relu2
I0406 14:26:10.308665  8229 net.cpp:91] Creating Layer relu2
I0406 14:26:10.308682  8229 net.cpp:425] relu2 <- pool2
I0406 14:26:10.308691  8229 net.cpp:386] relu2 -> pool2 (in-place)
I0406 14:26:10.308908  8229 net.cpp:141] Setting up relu2
I0406 14:26:10.308923  8229 net.cpp:148] Top shape: 40 100 1 176 (704000)
I0406 14:26:10.308966  8229 net.cpp:156] Memory required for data: 129769920
I0406 14:26:10.308974  8229 layer_factory.hpp:77] Creating layer conv3
I0406 14:26:10.308991  8229 net.cpp:91] Creating Layer conv3
I0406 14:26:10.309000  8229 net.cpp:425] conv3 <- pool2
I0406 14:26:10.309010  8229 net.cpp:399] conv3 -> conv3
I0406 14:26:10.312249  8229 net.cpp:141] Setting up conv3
I0406 14:26:10.312281  8229 net.cpp:148] Top shape: 40 100 1 157 (628000)
I0406 14:26:10.312288  8229 net.cpp:156] Memory required for data: 132281920
I0406 14:26:10.312302  8229 layer_factory.hpp:77] Creating layer pool3
I0406 14:26:10.312314  8229 net.cpp:91] Creating Layer pool3
I0406 14:26:10.312326  8229 net.cpp:425] pool3 <- conv3
I0406 14:26:10.312335  8229 net.cpp:399] pool3 -> pool3
I0406 14:26:10.312400  8229 net.cpp:141] Setting up pool3
I0406 14:26:10.312413  8229 net.cpp:148] Top shape: 40 100 1 79 (316000)
I0406 14:26:10.312418  8229 net.cpp:156] Memory required for data: 133545920
I0406 14:26:10.312423  8229 layer_factory.hpp:77] Creating layer relu3
I0406 14:26:10.312432  8229 net.cpp:91] Creating Layer relu3
I0406 14:26:10.312448  8229 net.cpp:425] relu3 <- pool3
I0406 14:26:10.312458  8229 net.cpp:386] relu3 -> pool3 (in-place)
I0406 14:26:10.312798  8229 net.cpp:141] Setting up relu3
I0406 14:26:10.312826  8229 net.cpp:148] Top shape: 40 100 1 79 (316000)
I0406 14:26:10.312834  8229 net.cpp:156] Memory required for data: 134809920
I0406 14:26:10.312839  8229 layer_factory.hpp:77] Creating layer conv4
I0406 14:26:10.312855  8229 net.cpp:91] Creating Layer conv4
I0406 14:26:10.312860  8229 net.cpp:425] conv4 <- pool3
I0406 14:26:10.312870  8229 net.cpp:399] conv4 -> conv4
I0406 14:26:10.315948  8229 net.cpp:141] Setting up conv4
I0406 14:26:10.315979  8229 net.cpp:148] Top shape: 40 100 1 60 (240000)
I0406 14:26:10.315986  8229 net.cpp:156] Memory required for data: 135769920
I0406 14:26:10.315996  8229 layer_factory.hpp:77] Creating layer pool4
I0406 14:26:10.316009  8229 net.cpp:91] Creating Layer pool4
I0406 14:26:10.316015  8229 net.cpp:425] pool4 <- conv4
I0406 14:26:10.316025  8229 net.cpp:399] pool4 -> pool4
I0406 14:26:10.316104  8229 net.cpp:141] Setting up pool4
I0406 14:26:10.316118  8229 net.cpp:148] Top shape: 40 100 1 30 (120000)
I0406 14:26:10.316123  8229 net.cpp:156] Memory required for data: 136249920
I0406 14:26:10.316128  8229 layer_factory.hpp:77] Creating layer relu4
I0406 14:26:10.316149  8229 net.cpp:91] Creating Layer relu4
I0406 14:26:10.316155  8229 net.cpp:425] relu4 <- pool4
I0406 14:26:10.316164  8229 net.cpp:386] relu4 -> pool4 (in-place)
I0406 14:26:10.316520  8229 net.cpp:141] Setting up relu4
I0406 14:26:10.316550  8229 net.cpp:148] Top shape: 40 100 1 30 (120000)
I0406 14:26:10.316555  8229 net.cpp:156] Memory required for data: 136729920
I0406 14:26:10.316560  8229 layer_factory.hpp:77] Creating layer ip1
I0406 14:26:10.316579  8229 net.cpp:91] Creating Layer ip1
I0406 14:26:10.316594  8229 net.cpp:425] ip1 <- pool4
I0406 14:26:10.316606  8229 net.cpp:399] ip1 -> ip1
I0406 14:26:10.330221  8229 net.cpp:141] Setting up ip1
I0406 14:26:10.330257  8229 net.cpp:148] Top shape: 40 500 (20000)
I0406 14:26:10.330263  8229 net.cpp:156] Memory required for data: 136809920
I0406 14:26:10.330279  8229 layer_factory.hpp:77] Creating layer relu1
I0406 14:26:10.330293  8229 net.cpp:91] Creating Layer relu1
I0406 14:26:10.330307  8229 net.cpp:425] relu1 <- ip1
I0406 14:26:10.330317  8229 net.cpp:386] relu1 -> ip1 (in-place)
I0406 14:26:10.330555  8229 net.cpp:141] Setting up relu1
I0406 14:26:10.330585  8229 net.cpp:148] Top shape: 40 500 (20000)
I0406 14:26:10.330590  8229 net.cpp:156] Memory required for data: 136889920
I0406 14:26:10.330596  8229 layer_factory.hpp:77] Creating layer ip2
I0406 14:26:10.330610  8229 net.cpp:91] Creating Layer ip2
I0406 14:26:10.330615  8229 net.cpp:425] ip2 <- ip1
I0406 14:26:10.330627  8229 net.cpp:399] ip2 -> result
I0406 14:26:10.330832  8229 net.cpp:141] Setting up ip2
I0406 14:26:10.330845  8229 net.cpp:148] Top shape: 40 2 (80)
I0406 14:26:10.330880  8229 net.cpp:156] Memory required for data: 136890240
I0406 14:26:10.330893  8229 layer_factory.hpp:77] Creating layer result_ip2_0_split
I0406 14:26:10.330902  8229 net.cpp:91] Creating Layer result_ip2_0_split
I0406 14:26:10.330909  8229 net.cpp:425] result_ip2_0_split <- result
I0406 14:26:10.330919  8229 net.cpp:399] result_ip2_0_split -> result_ip2_0_split_0
I0406 14:26:10.330935  8229 net.cpp:399] result_ip2_0_split -> result_ip2_0_split_1
I0406 14:26:10.330999  8229 net.cpp:141] Setting up result_ip2_0_split
I0406 14:26:10.331012  8229 net.cpp:148] Top shape: 40 2 (80)
I0406 14:26:10.331019  8229 net.cpp:148] Top shape: 40 2 (80)
I0406 14:26:10.331023  8229 net.cpp:156] Memory required for data: 136890880
I0406 14:26:10.331028  8229 layer_factory.hpp:77] Creating layer softmax
I0406 14:26:10.331049  8229 net.cpp:91] Creating Layer softmax
I0406 14:26:10.331055  8229 net.cpp:425] softmax <- result_ip2_0_split_0
I0406 14:26:10.331063  8229 net.cpp:399] softmax -> softmax
I0406 14:26:10.331497  8229 net.cpp:141] Setting up softmax
I0406 14:26:10.331526  8229 net.cpp:148] Top shape: 40 2 (80)
I0406 14:26:10.331533  8229 net.cpp:156] Memory required for data: 136891200
I0406 14:26:10.331539  8229 layer_factory.hpp:77] Creating layer accuracy
I0406 14:26:10.331554  8229 net.cpp:91] Creating Layer accuracy
I0406 14:26:10.331564  8229 net.cpp:425] accuracy <- result_ip2_0_split_1
I0406 14:26:10.331571  8229 net.cpp:425] accuracy <- labelC2O_irdata_1_split_0
I0406 14:26:10.331581  8229 net.cpp:399] accuracy -> accuracy
…
