…
device_id: 0
net: "lenet-0.prototxt"
I0407 10:18:06.226992 13352 solver.cpp:91] Creating training net from net file: lenet-0.prototxt
I0407 10:18:06.228442 13352 net.cpp:313] The NetState phase (0) differed from the phase (1) specified by a rule in layer irdata
I0407 10:18:06.228840 13352 net.cpp:49] Initializing net from parameters: 
name: "LeNet"
state {
  phase: TRAIN
}
layer {
  name: "irdata"
  type: "HDF5Data"
  top: "data"
  top: "labelCO"
  include {
    phase: TRAIN
  }
  hdf5_data_param {
    source: "train-0.txt"
    batch_size: 40
  }
}
layer {
  name: "conv1"
  type: "Convolution"
  bottom: "data"
  top: "conv1"
  param {
    lr_mult: 1
  }
  param {
    lr_mult: 2
  }
  convolution_param {
    num_output: 500
    stride: 1
    weight_filler {
      type: "xavier"
    }
    bias_filler {
      type: "constant"
    }
    kernel_h: 1
    kernel_w: 20
  }
}
layer {
  name: "pool1"
  type: "Pooling"
  bottom: "conv1"
  top: "pool1"
  pooling_param {
    pool: MAX
    stride: 2
    kernel_h: 1
    kernel_w: 2
  }
}
layer {
  name: "relu1"
  type: "ReLU"
  bottom: "pool1"
  top: "pool1"
}
layer {
  name: "conv2"
  type: "Convolution"
  bottom: "pool1"
  top: "conv2"
  param {
    lr_mult: 1
  }
  param {
    lr_mult: 2
  }
  convolution_param {
    num_output: 100
    stride: 1
    weight_filler {
      type: "xavier"
    }
    bias_filler {
      type: "constant"
    }
    kernel_h: 1
    kernel_w: 20
  }
}
layer {
  name: "pool2"
  type: "Pooling"
  bottom: "conv2"
  top: "pool2"
  pooling_param {
    pool: MAX
    stride: 2
    kernel_h: 1
    kernel_w: 2
  }
}
layer {
  name: "relu2"
  type: "ReLU"
  bottom: "pool2"
  top: "pool2"
}
layer {
  name: "conv3"
  type: "Convolution"
  bottom: "pool2"
  top: "conv3"
  param {
    lr_mult: 1
  }
  param {
    lr_mult: 2
  }
  convolution_param {
    num_output: 100
    stride: 1
    weight_filler {
      type: "xavier"
    }
    bias_filler {
      type: "constant"
    }
    kernel_h: 1
    kernel_w: 20
  }
}
layer {
  name: "pool3"
  type: "Pooling"
  bottom: "conv3"
  top: "pool3"
  pooling_param {
    pool: MAX
    stride: 2
    kernel_h: 1
    kernel_w: 2
  }
}
layer {
  name: "relu3"
  type: "ReLU"
  bottom: "pool3"
  top: "pool3"
}
layer {
  name: "conv4"
  type: "Convolution"
  bottom: "pool3"
  top: "conv4"
  param {
    lr_mult: 1
  }
  param {
    lr_mult: 2
  }
  convolution_param {
    num_output: 100
    stride: 1
    weight_filler {
      type: "xavier"
    }
    bias_filler {
      type: "constant"
    }
    kernel_h: 1
    kernel_w: 20
  }
}
layer {
  name: "pool4"
  type: "Pooling"
  bottom: "conv4"
  top: "pool4"
  pooling_param {
    pool: MAX
    stride: 2
    kernel_h: 1
    kernel_w: 2
  }
}
layer {
  name: "relu4"
  type: "ReLU"
  bottom: "pool4"
  top: "pool4"
}
layer {
  name: "ip1"
  type: "InnerProduct"
  bottom: "pool4"
  top: "ip1"
  param {
    lr_mult: 1
  }
  param {
    lr_mult: 2
  }
  inner_product_param {
    num_output: 500
    weight_filler {
      type: "xavier"
    }
    bias_filler {
      type: "constant"
    }
  }
}
layer {
  name: "relu1"
  type: "ReLU"
  bottom: "ip1"
  top: "ip1"
}
layer {
  name: "ip2"
  type: "InnerProduct"
  bottom: "ip1"
  top: "result"
  param {
    lr_mult: 1
  }
  param {
    lr_mult: 2
  }
  inner_product_param {
    num_output: 2
    weight_filler {
      type: "xavier"
    }
    bias_filler {
      type: "constant"
    }
  }
}
layer {
  name: "softmax"
  type: "Softmax"
  bottom: "result"
  top: "softmax"
}
layer {
  name: "accuracy"
  type: "Accuracy"
  bottom: "result"
  bottom: "labelCO"
  top: "accuracy"
}
layer {
  name: "infoGainLoss"
  type: "InfogainLoss"
  bottom: "softmax"
  bottom: "labelCO"
  top: "infoGainLoss"
  infogain_loss_param {
    source: "H_labelCO.binaryproto"
  }
}
I0407 10:18:06.229239 13352 layer_factory.hpp:77] Creating layer irdata
I0407 10:18:06.229288 13352 net.cpp:91] Creating Layer irdata
I0407 10:18:06.229315 13352 net.cpp:399] irdata -> data
I0407 10:18:06.229379 13352 net.cpp:399] irdata -> labelCO
I0407 10:18:06.229425 13352 hdf5_data_layer.cpp:79] Loading list of HDF5 filenames from: train-0.txt
I0407 10:18:06.229537 13352 hdf5_data_layer.cpp:93] Number of HDF5 files: 2
I0407 10:18:06.231679 13352 hdf5.cpp:32] Datatype class: H5T_FLOAT
I0407 10:18:06.280577 13352 net.cpp:141] Setting up irdata
I0407 10:18:06.280652 13352 net.cpp:148] Top shape: 40 1 1 759 (30360)
I0407 10:18:06.280671 13352 net.cpp:148] Top shape: 40 1 1 1 (40)
I0407 10:18:06.280683 13352 net.cpp:156] Memory required for data: 121600
I0407 10:18:06.280704 13352 layer_factory.hpp:77] Creating layer labelCO_irdata_1_split
I0407 10:18:06.280736 13352 net.cpp:91] Creating Layer labelCO_irdata_1_split
I0407 10:18:06.280757 13352 net.cpp:425] labelCO_irdata_1_split <- labelCO
I0407 10:18:06.280786 13352 net.cpp:399] labelCO_irdata_1_split -> labelCO_irdata_1_split_0
I0407 10:18:06.280817 13352 net.cpp:399] labelCO_irdata_1_split -> labelCO_irdata_1_split_1
I0407 10:18:06.280896 13352 net.cpp:141] Setting up labelCO_irdata_1_split
I0407 10:18:06.280920 13352 net.cpp:148] Top shape: 40 1 1 1 (40)
I0407 10:18:06.280935 13352 net.cpp:148] Top shape: 40 1 1 1 (40)
I0407 10:18:06.280946 13352 net.cpp:156] Memory required for data: 121920
I0407 10:18:06.280956 13352 layer_factory.hpp:77] Creating layer conv1
I0407 10:18:06.281003 13352 net.cpp:91] Creating Layer conv1
I0407 10:18:06.281018 13352 net.cpp:425] conv1 <- data
I0407 10:18:06.281038 13352 net.cpp:399] conv1 -> conv1
I0407 10:18:06.549118 13352 net.cpp:141] Setting up conv1
I0407 10:18:06.549190 13352 net.cpp:148] Top shape: 40 500 1 740 (14800000)
I0407 10:18:06.549206 13352 net.cpp:156] Memory required for data: 59321920
I0407 10:18:06.549262 13352 layer_factory.hpp:77] Creating layer pool1
I0407 10:18:06.549305 13352 net.cpp:91] Creating Layer pool1
I0407 10:18:06.549324 13352 net.cpp:425] pool1 <- conv1
I0407 10:18:06.549365 13352 net.cpp:399] pool1 -> pool1
I0407 10:18:06.549490 13352 net.cpp:141] Setting up pool1
I0407 10:18:06.549515 13352 net.cpp:148] Top shape: 40 500 1 370 (7400000)
I0407 10:18:06.549525 13352 net.cpp:156] Memory required for data: 88921920
I0407 10:18:06.549537 13352 layer_factory.hpp:77] Creating layer relu1
I0407 10:18:06.549561 13352 net.cpp:91] Creating Layer relu1
I0407 10:18:06.549576 13352 net.cpp:425] relu1 <- pool1
I0407 10:18:06.549594 13352 net.cpp:386] relu1 -> pool1 (in-place)
I0407 10:18:06.550143 13352 net.cpp:141] Setting up relu1
I0407 10:18:06.550171 13352 net.cpp:148] Top shape: 40 500 1 370 (7400000)
I0407 10:18:06.550185 13352 net.cpp:156] Memory required for data: 118521920
I0407 10:18:06.550201 13352 layer_factory.hpp:77] Creating layer conv2
I0407 10:18:06.550236 13352 net.cpp:91] Creating Layer conv2
I0407 10:18:06.550252 13352 net.cpp:425] conv2 <- pool1
I0407 10:18:06.550276 13352 net.cpp:399] conv2 -> conv2
I0407 10:18:06.570698 13352 net.cpp:141] Setting up conv2
I0407 10:18:06.570731 13352 net.cpp:148] Top shape: 40 100 1 351 (1404000)
I0407 10:18:06.570746 13352 net.cpp:156] Memory required for data: 124137920
I0407 10:18:06.570777 13352 layer_factory.hpp:77] Creating layer pool2
I0407 10:18:06.570799 13352 net.cpp:91] Creating Layer pool2
I0407 10:18:06.570814 13352 net.cpp:425] pool2 <- conv2
I0407 10:18:06.570833 13352 net.cpp:399] pool2 -> pool2
I0407 10:18:06.570924 13352 net.cpp:141] Setting up pool2
I0407 10:18:06.570945 13352 net.cpp:148] Top shape: 40 100 1 176 (704000)
I0407 10:18:06.570958 13352 net.cpp:156] Memory required for data: 126953920
I0407 10:18:06.570972 13352 layer_factory.hpp:77] Creating layer relu2
I0407 10:18:06.570991 13352 net.cpp:91] Creating Layer relu2
I0407 10:18:06.571004 13352 net.cpp:425] relu2 <- pool2
I0407 10:18:06.571035 13352 net.cpp:386] relu2 -> pool2 (in-place)
I0407 10:18:06.571413 13352 net.cpp:141] Setting up relu2
I0407 10:18:06.571439 13352 net.cpp:148] Top shape: 40 100 1 176 (704000)
I0407 10:18:06.571490 13352 net.cpp:156] Memory required for data: 129769920
I0407 10:18:06.571507 13352 layer_factory.hpp:77] Creating layer conv3
I0407 10:18:06.571543 13352 net.cpp:91] Creating Layer conv3
I0407 10:18:06.571563 13352 net.cpp:425] conv3 <- pool2
I0407 10:18:06.571598 13352 net.cpp:399] conv3 -> conv3
I0407 10:18:06.577922 13352 net.cpp:141] Setting up conv3
I0407 10:18:06.577963 13352 net.cpp:148] Top shape: 40 100 1 157 (628000)
I0407 10:18:06.577981 13352 net.cpp:156] Memory required for data: 132281920
I0407 10:18:06.578016 13352 layer_factory.hpp:77] Creating layer pool3
I0407 10:18:06.578042 13352 net.cpp:91] Creating Layer pool3
I0407 10:18:06.578060 13352 net.cpp:425] pool3 <- conv3
I0407 10:18:06.578083 13352 net.cpp:399] pool3 -> pool3
I0407 10:18:06.578192 13352 net.cpp:141] Setting up pool3
I0407 10:18:06.578219 13352 net.cpp:148] Top shape: 40 100 1 79 (316000)
I0407 10:18:06.578234 13352 net.cpp:156] Memory required for data: 133545920
I0407 10:18:06.578248 13352 layer_factory.hpp:77] Creating layer relu3
I0407 10:18:06.578269 13352 net.cpp:91] Creating Layer relu3
I0407 10:18:06.578286 13352 net.cpp:425] relu3 <- pool3
I0407 10:18:06.578315 13352 net.cpp:386] relu3 -> pool3 (in-place)
I0407 10:18:06.578943 13352 net.cpp:141] Setting up relu3
I0407 10:18:06.578974 13352 net.cpp:148] Top shape: 40 100 1 79 (316000)
I0407 10:18:06.578989 13352 net.cpp:156] Memory required for data: 134809920
I0407 10:18:06.579002 13352 layer_factory.hpp:77] Creating layer conv4
I0407 10:18:06.579033 13352 net.cpp:91] Creating Layer conv4
I0407 10:18:06.579048 13352 net.cpp:425] conv4 <- pool3
I0407 10:18:06.579074 13352 net.cpp:399] conv4 -> conv4
I0407 10:18:06.585217 13352 net.cpp:141] Setting up conv4
I0407 10:18:06.585252 13352 net.cpp:148] Top shape: 40 100 1 60 (240000)
I0407 10:18:06.585265 13352 net.cpp:156] Memory required for data: 135769920
I0407 10:18:06.585290 13352 layer_factory.hpp:77] Creating layer pool4
I0407 10:18:06.585314 13352 net.cpp:91] Creating Layer pool4
I0407 10:18:06.585331 13352 net.cpp:425] pool4 <- conv4
I0407 10:18:06.585357 13352 net.cpp:399] pool4 -> pool4
I0407 10:18:06.585465 13352 net.cpp:141] Setting up pool4
I0407 10:18:06.585500 13352 net.cpp:148] Top shape: 40 100 1 30 (120000)
I0407 10:18:06.585516 13352 net.cpp:156] Memory required for data: 136249920
I0407 10:18:06.585533 13352 layer_factory.hpp:77] Creating layer relu4
I0407 10:18:06.585569 13352 net.cpp:91] Creating Layer relu4
I0407 10:18:06.585587 13352 net.cpp:425] relu4 <- pool4
I0407 10:18:06.585609 13352 net.cpp:386] relu4 -> pool4 (in-place)
I0407 10:18:06.586225 13352 net.cpp:141] Setting up relu4
I0407 10:18:06.586253 13352 net.cpp:148] Top shape: 40 100 1 30 (120000)
I0407 10:18:06.586266 13352 net.cpp:156] Memory required for data: 136729920
I0407 10:18:06.586279 13352 layer_factory.hpp:77] Creating layer ip1
I0407 10:18:06.586311 13352 net.cpp:91] Creating Layer ip1
I0407 10:18:06.586326 13352 net.cpp:425] ip1 <- pool4
I0407 10:18:06.586351 13352 net.cpp:399] ip1 -> ip1
I0407 10:18:06.614506 13352 net.cpp:141] Setting up ip1
I0407 10:18:06.614552 13352 net.cpp:148] Top shape: 40 500 (20000)
I0407 10:18:06.614575 13352 net.cpp:156] Memory required for data: 136809920
I0407 10:18:06.614610 13352 layer_factory.hpp:77] Creating layer relu1
I0407 10:18:06.614636 13352 net.cpp:91] Creating Layer relu1
I0407 10:18:06.614662 13352 net.cpp:425] relu1 <- ip1
I0407 10:18:06.614683 13352 net.cpp:386] relu1 -> ip1 (in-place)
I0407 10:18:06.615094 13352 net.cpp:141] Setting up relu1
I0407 10:18:06.615123 13352 net.cpp:148] Top shape: 40 500 (20000)
I0407 10:18:06.615136 13352 net.cpp:156] Memory required for data: 136889920
I0407 10:18:06.615150 13352 layer_factory.hpp:77] Creating layer ip2
I0407 10:18:06.615175 13352 net.cpp:91] Creating Layer ip2
I0407 10:18:06.615190 13352 net.cpp:425] ip2 <- ip1
I0407 10:18:06.615213 13352 net.cpp:399] ip2 -> result
I0407 10:18:06.615483 13352 net.cpp:141] Setting up ip2
I0407 10:18:06.615512 13352 net.cpp:148] Top shape: 40 2 (80)
I0407 10:18:06.615559 13352 net.cpp:156] Memory required for data: 136890240
I0407 10:18:06.615589 13352 layer_factory.hpp:77] Creating layer result_ip2_0_split
I0407 10:18:06.615613 13352 net.cpp:91] Creating Layer result_ip2_0_split
I0407 10:18:06.615631 13352 net.cpp:425] result_ip2_0_split <- result
I0407 10:18:06.615659 13352 net.cpp:399] result_ip2_0_split -> result_ip2_0_split_0
I0407 10:18:06.615686 13352 net.cpp:399] result_ip2_0_split -> result_ip2_0_split_1
I0407 10:18:06.615790 13352 net.cpp:141] Setting up result_ip2_0_split
I0407 10:18:06.615826 13352 net.cpp:148] Top shape: 40 2 (80)
I0407 10:18:06.615849 13352 net.cpp:148] Top shape: 40 2 (80)
I0407 10:18:06.615864 13352 net.cpp:156] Memory required for data: 136890880
I0407 10:18:06.615878 13352 layer_factory.hpp:77] Creating layer softmax
I0407 10:18:06.615897 13352 net.cpp:91] Creating Layer softmax
I0407 10:18:06.615911 13352 net.cpp:425] softmax <- result_ip2_0_split_0
I0407 10:18:06.615928 13352 net.cpp:399] softmax -> softmax
I0407 10:18:06.616632 13352 net.cpp:141] Setting up softmax
I0407 10:18:06.616662 13352 net.cpp:148] Top shape: 40 2 (80)
I0407 10:18:06.616678 13352 net.cpp:156] Memory required for data: 136891200
I0407 10:18:06.616693 13352 layer_factory.hpp:77] Creating layer accuracy
I0407 10:18:06.616722 13352 net.cpp:91] Creating Layer accuracy
I0407 10:18:06.616739 13352 net.cpp:425] accuracy <- result_ip2_0_split_1
I0407 10:18:06.616760 13352 net.cpp:425] accuracy <- labelCO_irdata_1_split_0
I0407 10:18:06.616783 13352 net.cpp:399] accuracy -> accuracy
…
