…
device_id: 0
net: "lenet-0.prototxt"
I0404 15:37:47.214728  7626 solver.cpp:91] Creating training net from net file: lenet-0.prototxt
I0404 15:37:47.215590  7626 net.cpp:313] The NetState phase (0) differed from the phase (1) specified by a rule in layer irdata
I0404 15:37:47.215826  7626 net.cpp:49] Initializing net from parameters: 
name: "LeNet"
state {
  phase: TRAIN
}
layer {
  name: "irdata"
  type: "HDF5Data"
  top: "data"
  top: "labelCN"
  include {
    phase: TRAIN
  }
  hdf5_data_param {
    source: "train-0.txt"
    batch_size: 40
  }
}
layer {
  name: "conv1"
  type: "Convolution"
  bottom: "data"
  top: "conv1"
  param {
    lr_mult: 1
  }
  param {
    lr_mult: 2
  }
  convolution_param {
    num_output: 500
    stride: 1
    weight_filler {
      type: "xavier"
    }
    bias_filler {
      type: "constant"
    }
    kernel_h: 1
    kernel_w: 20
  }
}
layer {
  name: "pool1"
  type: "Pooling"
  bottom: "conv1"
  top: "pool1"
  pooling_param {
    pool: MAX
    stride: 2
    kernel_h: 1
    kernel_w: 2
  }
}
layer {
  name: "relu1"
  type: "ReLU"
  bottom: "pool1"
  top: "pool1"
}
layer {
  name: "conv2"
  type: "Convolution"
  bottom: "pool1"
  top: "conv2"
  param {
    lr_mult: 1
  }
  param {
    lr_mult: 2
  }
  convolution_param {
    num_output: 100
    stride: 1
    weight_filler {
      type: "xavier"
    }
    bias_filler {
      type: "constant"
    }
    kernel_h: 1
    kernel_w: 20
  }
}
layer {
  name: "pool2"
  type: "Pooling"
  bottom: "conv2"
  top: "pool2"
  pooling_param {
    pool: MAX
    stride: 2
    kernel_h: 1
    kernel_w: 2
  }
}
layer {
  name: "relu2"
  type: "ReLU"
  bottom: "pool2"
  top: "pool2"
}
layer {
  name: "conv3"
  type: "Convolution"
  bottom: "pool2"
  top: "conv3"
  param {
    lr_mult: 1
  }
  param {
    lr_mult: 2
  }
  convolution_param {
    num_output: 100
    stride: 1
    weight_filler {
      type: "xavier"
    }
    bias_filler {
      type: "constant"
    }
    kernel_h: 1
    kernel_w: 20
  }
}
layer {
  name: "pool3"
  type: "Pooling"
  bottom: "conv3"
  top: "pool3"
  pooling_param {
    pool: MAX
    stride: 2
    kernel_h: 1
    kernel_w: 2
  }
}
layer {
  name: "relu3"
  type: "ReLU"
  bottom: "pool3"
  top: "pool3"
}
layer {
  name: "conv4"
  type: "Convolution"
  bottom: "pool3"
  top: "conv4"
  param {
    lr_mult: 1
  }
  param {
    lr_mult: 2
  }
  convolution_param {
    num_output: 100
    stride: 1
    weight_filler {
      type: "xavier"
    }
    bias_filler {
      type: "constant"
    }
    kernel_h: 1
    kernel_w: 20
  }
}
layer {
  name: "pool4"
  type: "Pooling"
  bottom: "conv4"
  top: "pool4"
  pooling_param {
    pool: MAX
    stride: 2
    kernel_h: 1
    kernel_w: 2
  }
}
layer {
  name: "relu4"
  type: "ReLU"
  bottom: "pool4"
  top: "pool4"
}
layer {
  name: "ip1"
  type: "InnerProduct"
  bottom: "pool4"
  top: "ip1"
  param {
    lr_mult: 1
  }
  param {
    lr_mult: 2
  }
  inner_product_param {
    num_output: 500
    weight_filler {
      type: "xavier"
    }
    bias_filler {
      type: "constant"
    }
  }
}
layer {
  name: "relu1"
  type: "ReLU"
  bottom: "ip1"
  top: "ip1"
}
layer {
  name: "ip2"
  type: "InnerProduct"
  bottom: "ip1"
  top: "result"
  param {
    lr_mult: 1
  }
  param {
    lr_mult: 2
  }
  inner_product_param {
    num_output: 2
    weight_filler {
      type: "xavier"
    }
    bias_filler {
      type: "constant"
    }
  }
}
layer {
  name: "softmax"
  type: "Softmax"
  bottom: "result"
  top: "softmax"
}
layer {
  name: "accuracy"
  type: "Accuracy"
  bottom: "result"
  bottom: "labelCN"
  top: "accuracy"
}
layer {
  name: "infoGainLoss"
  type: "InfogainLoss"
  bottom: "softmax"
  bottom: "labelCN"
  top: "infoGainLoss"
  infogain_loss_param {
    source: "H_labelCN.binaryproto"
  }
}
I0404 15:37:47.216099  7626 layer_factory.hpp:77] Creating layer irdata
I0404 15:37:47.216135  7626 net.cpp:91] Creating Layer irdata
I0404 15:37:47.216151  7626 net.cpp:399] irdata -> data
I0404 15:37:47.216198  7626 net.cpp:399] irdata -> labelCN
I0404 15:37:47.216228  7626 hdf5_data_layer.cpp:79] Loading list of HDF5 filenames from: train-0.txt
I0404 15:37:47.216305  7626 hdf5_data_layer.cpp:93] Number of HDF5 files: 2
I0404 15:37:47.217870  7626 hdf5.cpp:32] Datatype class: H5T_FLOAT
I0404 15:37:47.247586  7626 net.cpp:141] Setting up irdata
I0404 15:37:47.247650  7626 net.cpp:148] Top shape: 40 1 1 759 (30360)
I0404 15:37:47.247663  7626 net.cpp:148] Top shape: 40 1 1 1 (40)
I0404 15:37:47.247671  7626 net.cpp:156] Memory required for data: 121600
I0404 15:37:47.247687  7626 layer_factory.hpp:77] Creating layer labelCN_irdata_1_split
I0404 15:37:47.247711  7626 net.cpp:91] Creating Layer labelCN_irdata_1_split
I0404 15:37:47.247727  7626 net.cpp:425] labelCN_irdata_1_split <- labelCN
I0404 15:37:47.247750  7626 net.cpp:399] labelCN_irdata_1_split -> labelCN_irdata_1_split_0
I0404 15:37:47.247773  7626 net.cpp:399] labelCN_irdata_1_split -> labelCN_irdata_1_split_1
I0404 15:37:47.247835  7626 net.cpp:141] Setting up labelCN_irdata_1_split
I0404 15:37:47.247853  7626 net.cpp:148] Top shape: 40 1 1 1 (40)
I0404 15:37:47.247861  7626 net.cpp:148] Top shape: 40 1 1 1 (40)
I0404 15:37:47.247867  7626 net.cpp:156] Memory required for data: 121920
I0404 15:37:47.247874  7626 layer_factory.hpp:77] Creating layer conv1
I0404 15:37:47.247915  7626 net.cpp:91] Creating Layer conv1
I0404 15:37:47.247925  7626 net.cpp:425] conv1 <- data
I0404 15:37:47.247937  7626 net.cpp:399] conv1 -> conv1
I0404 15:37:47.425036  7626 net.cpp:141] Setting up conv1
I0404 15:37:47.425104  7626 net.cpp:148] Top shape: 40 500 1 740 (14800000)
I0404 15:37:47.425113  7626 net.cpp:156] Memory required for data: 59321920
I0404 15:37:47.425155  7626 layer_factory.hpp:77] Creating layer pool1
I0404 15:37:47.425190  7626 net.cpp:91] Creating Layer pool1
I0404 15:37:47.425204  7626 net.cpp:425] pool1 <- conv1
I0404 15:37:47.425218  7626 net.cpp:399] pool1 -> pool1
I0404 15:37:47.425312  7626 net.cpp:141] Setting up pool1
I0404 15:37:47.425330  7626 net.cpp:148] Top shape: 40 500 1 370 (7400000)
I0404 15:37:47.425338  7626 net.cpp:156] Memory required for data: 88921920
I0404 15:37:47.425344  7626 layer_factory.hpp:77] Creating layer relu1
I0404 15:37:47.425364  7626 net.cpp:91] Creating Layer relu1
I0404 15:37:47.425381  7626 net.cpp:425] relu1 <- pool1
I0404 15:37:47.425392  7626 net.cpp:386] relu1 -> pool1 (in-place)
I0404 15:37:47.425783  7626 net.cpp:141] Setting up relu1
I0404 15:37:47.425806  7626 net.cpp:148] Top shape: 40 500 1 370 (7400000)
I0404 15:37:47.425813  7626 net.cpp:156] Memory required for data: 118521920
I0404 15:37:47.425820  7626 layer_factory.hpp:77] Creating layer conv2
I0404 15:37:47.425844  7626 net.cpp:91] Creating Layer conv2
I0404 15:37:47.425858  7626 net.cpp:425] conv2 <- pool1
I0404 15:37:47.425871  7626 net.cpp:399] conv2 -> conv2
I0404 15:37:47.438813  7626 net.cpp:141] Setting up conv2
I0404 15:37:47.438838  7626 net.cpp:148] Top shape: 40 100 1 351 (1404000)
I0404 15:37:47.438846  7626 net.cpp:156] Memory required for data: 124137920
I0404 15:37:47.438863  7626 layer_factory.hpp:77] Creating layer pool2
I0404 15:37:47.438881  7626 net.cpp:91] Creating Layer pool2
I0404 15:37:47.438901  7626 net.cpp:425] pool2 <- conv2
I0404 15:37:47.438912  7626 net.cpp:399] pool2 -> pool2
I0404 15:37:47.438982  7626 net.cpp:141] Setting up pool2
I0404 15:37:47.438997  7626 net.cpp:148] Top shape: 40 100 1 176 (704000)
I0404 15:37:47.439003  7626 net.cpp:156] Memory required for data: 126953920
I0404 15:37:47.439010  7626 layer_factory.hpp:77] Creating layer relu2
I0404 15:37:47.439020  7626 net.cpp:91] Creating Layer relu2
I0404 15:37:47.439028  7626 net.cpp:425] relu2 <- pool2
I0404 15:37:47.439036  7626 net.cpp:386] relu2 -> pool2 (in-place)
I0404 15:37:47.439303  7626 net.cpp:141] Setting up relu2
I0404 15:37:47.439322  7626 net.cpp:148] Top shape: 40 100 1 176 (704000)
I0404 15:37:47.439363  7626 net.cpp:156] Memory required for data: 129769920
I0404 15:37:47.439373  7626 layer_factory.hpp:77] Creating layer conv3
I0404 15:37:47.439396  7626 net.cpp:91] Creating Layer conv3
I0404 15:37:47.439406  7626 net.cpp:425] conv3 <- pool2
I0404 15:37:47.439422  7626 net.cpp:399] conv3 -> conv3
I0404 15:37:47.443425  7626 net.cpp:141] Setting up conv3
I0404 15:37:47.443454  7626 net.cpp:148] Top shape: 40 100 1 157 (628000)
I0404 15:37:47.443461  7626 net.cpp:156] Memory required for data: 132281920
I0404 15:37:47.443478  7626 layer_factory.hpp:77] Creating layer pool3
I0404 15:37:47.443491  7626 net.cpp:91] Creating Layer pool3
I0404 15:37:47.443509  7626 net.cpp:425] pool3 <- conv3
I0404 15:37:47.443521  7626 net.cpp:399] pool3 -> pool3
I0404 15:37:47.443588  7626 net.cpp:141] Setting up pool3
I0404 15:37:47.443603  7626 net.cpp:148] Top shape: 40 100 1 79 (316000)
I0404 15:37:47.443609  7626 net.cpp:156] Memory required for data: 133545920
I0404 15:37:47.443616  7626 layer_factory.hpp:77] Creating layer relu3
I0404 15:37:47.443630  7626 net.cpp:91] Creating Layer relu3
I0404 15:37:47.443639  7626 net.cpp:425] relu3 <- pool3
I0404 15:37:47.443647  7626 net.cpp:386] relu3 -> pool3 (in-place)
I0404 15:37:47.444064  7626 net.cpp:141] Setting up relu3
I0404 15:37:47.444085  7626 net.cpp:148] Top shape: 40 100 1 79 (316000)
I0404 15:37:47.444093  7626 net.cpp:156] Memory required for data: 134809920
I0404 15:37:47.444100  7626 layer_factory.hpp:77] Creating layer conv4
I0404 15:37:47.444119  7626 net.cpp:91] Creating Layer conv4
I0404 15:37:47.444139  7626 net.cpp:425] conv4 <- pool3
I0404 15:37:47.444154  7626 net.cpp:399] conv4 -> conv4
I0404 15:37:47.448035  7626 net.cpp:141] Setting up conv4
I0404 15:37:47.448060  7626 net.cpp:148] Top shape: 40 100 1 60 (240000)
I0404 15:37:47.448067  7626 net.cpp:156] Memory required for data: 135769920
I0404 15:37:47.448079  7626 layer_factory.hpp:77] Creating layer pool4
I0404 15:37:47.448093  7626 net.cpp:91] Creating Layer pool4
I0404 15:37:47.448101  7626 net.cpp:425] pool4 <- conv4
I0404 15:37:47.448117  7626 net.cpp:399] pool4 -> pool4
I0404 15:37:47.448184  7626 net.cpp:141] Setting up pool4
I0404 15:37:47.448199  7626 net.cpp:148] Top shape: 40 100 1 30 (120000)
I0404 15:37:47.448205  7626 net.cpp:156] Memory required for data: 136249920
I0404 15:37:47.448211  7626 layer_factory.hpp:77] Creating layer relu4
I0404 15:37:47.448227  7626 net.cpp:91] Creating Layer relu4
I0404 15:37:47.448235  7626 net.cpp:425] relu4 <- pool4
I0404 15:37:47.448243  7626 net.cpp:386] relu4 -> pool4 (in-place)
I0404 15:37:47.448679  7626 net.cpp:141] Setting up relu4
I0404 15:37:47.448700  7626 net.cpp:148] Top shape: 40 100 1 30 (120000)
I0404 15:37:47.448709  7626 net.cpp:156] Memory required for data: 136729920
I0404 15:37:47.448715  7626 layer_factory.hpp:77] Creating layer ip1
I0404 15:37:47.448737  7626 net.cpp:91] Creating Layer ip1
I0404 15:37:47.448755  7626 net.cpp:425] ip1 <- pool4
I0404 15:37:47.448772  7626 net.cpp:399] ip1 -> ip1
I0404 15:37:47.465920  7626 net.cpp:141] Setting up ip1
I0404 15:37:47.465953  7626 net.cpp:148] Top shape: 40 500 (20000)
I0404 15:37:47.465960  7626 net.cpp:156] Memory required for data: 136809920
I0404 15:37:47.465980  7626 layer_factory.hpp:77] Creating layer relu1
I0404 15:37:47.465996  7626 net.cpp:91] Creating Layer relu1
I0404 15:37:47.466006  7626 net.cpp:425] relu1 <- ip1
I0404 15:37:47.466015  7626 net.cpp:386] relu1 -> ip1 (in-place)
I0404 15:37:47.466305  7626 net.cpp:141] Setting up relu1
I0404 15:37:47.466325  7626 net.cpp:148] Top shape: 40 500 (20000)
I0404 15:37:47.466332  7626 net.cpp:156] Memory required for data: 136889920
I0404 15:37:47.466339  7626 layer_factory.hpp:77] Creating layer ip2
I0404 15:37:47.466357  7626 net.cpp:91] Creating Layer ip2
I0404 15:37:47.466364  7626 net.cpp:425] ip2 <- ip1
I0404 15:37:47.466379  7626 net.cpp:399] ip2 -> result
I0404 15:37:47.466558  7626 net.cpp:141] Setting up ip2
I0404 15:37:47.466575  7626 net.cpp:148] Top shape: 40 2 (80)
I0404 15:37:47.466605  7626 net.cpp:156] Memory required for data: 136890240
I0404 15:37:47.466619  7626 layer_factory.hpp:77] Creating layer result_ip2_0_split
I0404 15:37:47.466630  7626 net.cpp:91] Creating Layer result_ip2_0_split
I0404 15:37:47.466637  7626 net.cpp:425] result_ip2_0_split <- result
I0404 15:37:47.466678  7626 net.cpp:399] result_ip2_0_split -> result_ip2_0_split_0
I0404 15:37:47.466696  7626 net.cpp:399] result_ip2_0_split -> result_ip2_0_split_1
I0404 15:37:47.466763  7626 net.cpp:141] Setting up result_ip2_0_split
I0404 15:37:47.466780  7626 net.cpp:148] Top shape: 40 2 (80)
I0404 15:37:47.466789  7626 net.cpp:148] Top shape: 40 2 (80)
I0404 15:37:47.466795  7626 net.cpp:156] Memory required for data: 136890880
I0404 15:37:47.466801  7626 layer_factory.hpp:77] Creating layer softmax
I0404 15:37:47.466812  7626 net.cpp:91] Creating Layer softmax
I0404 15:37:47.466819  7626 net.cpp:425] softmax <- result_ip2_0_split_0
I0404 15:37:47.466828  7626 net.cpp:399] softmax -> softmax
I0404 15:37:47.467336  7626 net.cpp:141] Setting up softmax
I0404 15:37:47.467361  7626 net.cpp:148] Top shape: 40 2 (80)
I0404 15:37:47.467370  7626 net.cpp:156] Memory required for data: 136891200
I0404 15:37:47.467376  7626 layer_factory.hpp:77] Creating layer accuracy
I0404 15:37:47.467394  7626 net.cpp:91] Creating Layer accuracy
I0404 15:37:47.467401  7626 net.cpp:425] accuracy <- result_ip2_0_split_1
I0404 15:37:47.467417  7626 net.cpp:425] accuracy <- labelCN_irdata_1_split_0
I0404 15:37:47.467429  7626 net.cpp:399] accuracy -> accuracy
…
