…
device_id: 0
net: "lenet-0.prototxt"
I0408 22:04:45.654168 29777 solver.cpp:91] Creating training net from net file: lenet-0.prototxt
I0408 22:04:45.654886 29777 net.cpp:313] The NetState phase (0) differed from the phase (1) specified by a rule in layer irdata
I0408 22:04:45.655105 29777 net.cpp:49] Initializing net from parameters: 
name: "LeNet"
state {
  phase: TRAIN
}
layer {
  name: "irdata"
  type: "HDF5Data"
  top: "data"
  top: "labelNOorN2O"
  include {
    phase: TRAIN
  }
  hdf5_data_param {
    source: "train-0.txt"
    batch_size: 40
  }
}
layer {
  name: "conv1"
  type: "Convolution"
  bottom: "data"
  top: "conv1"
  param {
    lr_mult: 1
  }
  param {
    lr_mult: 2
  }
  convolution_param {
    num_output: 500
    stride: 1
    weight_filler {
      type: "xavier"
    }
    bias_filler {
      type: "constant"
    }
    kernel_h: 1
    kernel_w: 20
  }
}
layer {
  name: "pool1"
  type: "Pooling"
  bottom: "conv1"
  top: "pool1"
  pooling_param {
    pool: MAX
    stride: 2
    kernel_h: 1
    kernel_w: 2
  }
}
layer {
  name: "relu1"
  type: "ReLU"
  bottom: "pool1"
  top: "pool1"
}
layer {
  name: "conv2"
  type: "Convolution"
  bottom: "pool1"
  top: "conv2"
  param {
    lr_mult: 1
  }
  param {
    lr_mult: 2
  }
  convolution_param {
    num_output: 100
    stride: 1
    weight_filler {
      type: "xavier"
    }
    bias_filler {
      type: "constant"
    }
    kernel_h: 1
    kernel_w: 20
  }
}
layer {
  name: "pool2"
  type: "Pooling"
  bottom: "conv2"
  top: "pool2"
  pooling_param {
    pool: MAX
    stride: 2
    kernel_h: 1
    kernel_w: 2
  }
}
layer {
  name: "relu2"
  type: "ReLU"
  bottom: "pool2"
  top: "pool2"
}
layer {
  name: "conv3"
  type: "Convolution"
  bottom: "pool2"
  top: "conv3"
  param {
    lr_mult: 1
  }
  param {
    lr_mult: 2
  }
  convolution_param {
    num_output: 100
    stride: 1
    weight_filler {
      type: "xavier"
    }
    bias_filler {
      type: "constant"
    }
    kernel_h: 1
    kernel_w: 20
  }
}
layer {
  name: "pool3"
  type: "Pooling"
  bottom: "conv3"
  top: "pool3"
  pooling_param {
    pool: MAX
    stride: 2
    kernel_h: 1
    kernel_w: 2
  }
}
layer {
  name: "relu3"
  type: "ReLU"
  bottom: "pool3"
  top: "pool3"
}
layer {
  name: "conv4"
  type: "Convolution"
  bottom: "pool3"
  top: "conv4"
  param {
    lr_mult: 1
  }
  param {
    lr_mult: 2
  }
  convolution_param {
    num_output: 100
    stride: 1
    weight_filler {
      type: "xavier"
    }
    bias_filler {
      type: "constant"
    }
    kernel_h: 1
    kernel_w: 20
  }
}
layer {
  name: "pool4"
  type: "Pooling"
  bottom: "conv4"
  top: "pool4"
  pooling_param {
    pool: MAX
    stride: 2
    kernel_h: 1
    kernel_w: 2
  }
}
layer {
  name: "relu4"
  type: "ReLU"
  bottom: "pool4"
  top: "pool4"
}
layer {
  name: "ip1"
  type: "InnerProduct"
  bottom: "pool4"
  top: "ip1"
  param {
    lr_mult: 1
  }
  param {
    lr_mult: 2
  }
  inner_product_param {
    num_output: 500
    weight_filler {
      type: "xavier"
    }
    bias_filler {
      type: "constant"
    }
  }
}
layer {
  name: "relu1"
  type: "ReLU"
  bottom: "ip1"
  top: "ip1"
}
layer {
  name: "ip2"
  type: "InnerProduct"
  bottom: "ip1"
  top: "result"
  param {
    lr_mult: 1
  }
  param {
    lr_mult: 2
  }
  inner_product_param {
    num_output: 2
    weight_filler {
      type: "xavier"
    }
    bias_filler {
      type: "constant"
    }
  }
}
layer {
  name: "softmax"
  type: "Softmax"
  bottom: "result"
  top: "softmax"
}
layer {
  name: "accuracy"
  type: "Accuracy"
  bottom: "result"
  bottom: "labelNOorN2O"
  top: "accuracy"
}
layer {
  name: "infoGainLoss"
  type: "InfogainLoss"
  bottom: "softmax"
  bottom: "labelNOorN2O"
  top: "infoGainLoss"
  infogain_loss_param {
    source: "H_labelNOorN2O.binaryproto"
  }
}
I0408 22:04:45.655360 29777 layer_factory.hpp:77] Creating layer irdata
I0408 22:04:45.655398 29777 net.cpp:91] Creating Layer irdata
I0408 22:04:45.655413 29777 net.cpp:399] irdata -> data
I0408 22:04:45.655449 29777 net.cpp:399] irdata -> labelNOorN2O
I0408 22:04:45.655485 29777 hdf5_data_layer.cpp:79] Loading list of HDF5 filenames from: train-0.txt
I0408 22:04:45.655560 29777 hdf5_data_layer.cpp:93] Number of HDF5 files: 2
I0408 22:04:45.656920 29777 hdf5.cpp:32] Datatype class: H5T_FLOAT
I0408 22:04:45.682919 29777 net.cpp:141] Setting up irdata
I0408 22:04:45.682996 29777 net.cpp:148] Top shape: 40 1 1 759 (30360)
I0408 22:04:45.683008 29777 net.cpp:148] Top shape: 40 1 1 1 (40)
I0408 22:04:45.683014 29777 net.cpp:156] Memory required for data: 121600
I0408 22:04:45.683028 29777 layer_factory.hpp:77] Creating layer labelNOorN2O_irdata_1_split
I0408 22:04:45.683048 29777 net.cpp:91] Creating Layer labelNOorN2O_irdata_1_split
I0408 22:04:45.683058 29777 net.cpp:425] labelNOorN2O_irdata_1_split <- labelNOorN2O
I0408 22:04:45.683081 29777 net.cpp:399] labelNOorN2O_irdata_1_split -> labelNOorN2O_irdata_1_split_0
I0408 22:04:45.683100 29777 net.cpp:399] labelNOorN2O_irdata_1_split -> labelNOorN2O_irdata_1_split_1
I0408 22:04:45.683159 29777 net.cpp:141] Setting up labelNOorN2O_irdata_1_split
I0408 22:04:45.683172 29777 net.cpp:148] Top shape: 40 1 1 1 (40)
I0408 22:04:45.683181 29777 net.cpp:148] Top shape: 40 1 1 1 (40)
I0408 22:04:45.683185 29777 net.cpp:156] Memory required for data: 121920
I0408 22:04:45.683192 29777 layer_factory.hpp:77] Creating layer conv1
I0408 22:04:45.683233 29777 net.cpp:91] Creating Layer conv1
I0408 22:04:45.683241 29777 net.cpp:425] conv1 <- data
I0408 22:04:45.683250 29777 net.cpp:399] conv1 -> conv1
I0408 22:04:45.831977 29777 net.cpp:141] Setting up conv1
I0408 22:04:45.832039 29777 net.cpp:148] Top shape: 40 500 1 740 (14800000)
I0408 22:04:45.832049 29777 net.cpp:156] Memory required for data: 59321920
I0408 22:04:45.832080 29777 layer_factory.hpp:77] Creating layer pool1
I0408 22:04:45.832103 29777 net.cpp:91] Creating Layer pool1
I0408 22:04:45.832113 29777 net.cpp:425] pool1 <- conv1
I0408 22:04:45.832129 29777 net.cpp:399] pool1 -> pool1
I0408 22:04:45.832214 29777 net.cpp:141] Setting up pool1
I0408 22:04:45.832228 29777 net.cpp:148] Top shape: 40 500 1 370 (7400000)
I0408 22:04:45.832247 29777 net.cpp:156] Memory required for data: 88921920
I0408 22:04:45.832253 29777 layer_factory.hpp:77] Creating layer relu1
I0408 22:04:45.832267 29777 net.cpp:91] Creating Layer relu1
I0408 22:04:45.832273 29777 net.cpp:425] relu1 <- pool1
I0408 22:04:45.832281 29777 net.cpp:386] relu1 -> pool1 (in-place)
I0408 22:04:45.832626 29777 net.cpp:141] Setting up relu1
I0408 22:04:45.832656 29777 net.cpp:148] Top shape: 40 500 1 370 (7400000)
I0408 22:04:45.832664 29777 net.cpp:156] Memory required for data: 118521920
I0408 22:04:45.832669 29777 layer_factory.hpp:77] Creating layer conv2
I0408 22:04:45.832690 29777 net.cpp:91] Creating Layer conv2
I0408 22:04:45.832700 29777 net.cpp:425] conv2 <- pool1
I0408 22:04:45.832712 29777 net.cpp:399] conv2 -> conv2
I0408 22:04:45.844192 29777 net.cpp:141] Setting up conv2
I0408 22:04:45.844234 29777 net.cpp:148] Top shape: 40 100 1 351 (1404000)
I0408 22:04:45.844245 29777 net.cpp:156] Memory required for data: 124137920
I0408 22:04:45.844264 29777 layer_factory.hpp:77] Creating layer pool2
I0408 22:04:45.844280 29777 net.cpp:91] Creating Layer pool2
I0408 22:04:45.844291 29777 net.cpp:425] pool2 <- conv2
I0408 22:04:45.844307 29777 net.cpp:399] pool2 -> pool2
I0408 22:04:45.844384 29777 net.cpp:141] Setting up pool2
I0408 22:04:45.844398 29777 net.cpp:148] Top shape: 40 100 1 176 (704000)
I0408 22:04:45.844403 29777 net.cpp:156] Memory required for data: 126953920
I0408 22:04:45.844408 29777 layer_factory.hpp:77] Creating layer relu2
I0408 22:04:45.844429 29777 net.cpp:91] Creating Layer relu2
I0408 22:04:45.844435 29777 net.cpp:425] relu2 <- pool2
I0408 22:04:45.844446 29777 net.cpp:386] relu2 -> pool2 (in-place)
I0408 22:04:45.844677 29777 net.cpp:141] Setting up relu2
I0408 22:04:45.844727 29777 net.cpp:148] Top shape: 40 100 1 176 (704000)
I0408 22:04:45.844733 29777 net.cpp:156] Memory required for data: 129769920
I0408 22:04:45.844739 29777 layer_factory.hpp:77] Creating layer conv3
I0408 22:04:45.844764 29777 net.cpp:91] Creating Layer conv3
I0408 22:04:45.844774 29777 net.cpp:425] conv3 <- pool2
I0408 22:04:45.844784 29777 net.cpp:399] conv3 -> conv3
I0408 22:04:45.848212 29777 net.cpp:141] Setting up conv3
I0408 22:04:45.848244 29777 net.cpp:148] Top shape: 40 100 1 157 (628000)
I0408 22:04:45.848251 29777 net.cpp:156] Memory required for data: 132281920
I0408 22:04:45.848268 29777 layer_factory.hpp:77] Creating layer pool3
I0408 22:04:45.848278 29777 net.cpp:91] Creating Layer pool3
I0408 22:04:45.848296 29777 net.cpp:425] pool3 <- conv3
I0408 22:04:45.848316 29777 net.cpp:399] pool3 -> pool3
I0408 22:04:45.848382 29777 net.cpp:141] Setting up pool3
I0408 22:04:45.848397 29777 net.cpp:148] Top shape: 40 100 1 79 (316000)
I0408 22:04:45.848402 29777 net.cpp:156] Memory required for data: 133545920
I0408 22:04:45.848407 29777 layer_factory.hpp:77] Creating layer relu3
I0408 22:04:45.848418 29777 net.cpp:91] Creating Layer relu3
I0408 22:04:45.848424 29777 net.cpp:425] relu3 <- pool3
I0408 22:04:45.848443 29777 net.cpp:386] relu3 -> pool3 (in-place)
I0408 22:04:45.848801 29777 net.cpp:141] Setting up relu3
I0408 22:04:45.848831 29777 net.cpp:148] Top shape: 40 100 1 79 (316000)
I0408 22:04:45.848837 29777 net.cpp:156] Memory required for data: 134809920
I0408 22:04:45.848844 29777 layer_factory.hpp:77] Creating layer conv4
I0408 22:04:45.848865 29777 net.cpp:91] Creating Layer conv4
I0408 22:04:45.848872 29777 net.cpp:425] conv4 <- pool3
I0408 22:04:45.848882 29777 net.cpp:399] conv4 -> conv4
I0408 22:04:45.852197 29777 net.cpp:141] Setting up conv4
I0408 22:04:45.852239 29777 net.cpp:148] Top shape: 40 100 1 60 (240000)
I0408 22:04:45.852246 29777 net.cpp:156] Memory required for data: 135769920
I0408 22:04:45.852257 29777 layer_factory.hpp:77] Creating layer pool4
I0408 22:04:45.852272 29777 net.cpp:91] Creating Layer pool4
I0408 22:04:45.852291 29777 net.cpp:425] pool4 <- conv4
I0408 22:04:45.852308 29777 net.cpp:399] pool4 -> pool4
I0408 22:04:45.852392 29777 net.cpp:141] Setting up pool4
I0408 22:04:45.852406 29777 net.cpp:148] Top shape: 40 100 1 30 (120000)
I0408 22:04:45.852423 29777 net.cpp:156] Memory required for data: 136249920
I0408 22:04:45.852429 29777 layer_factory.hpp:77] Creating layer relu4
I0408 22:04:45.852438 29777 net.cpp:91] Creating Layer relu4
I0408 22:04:45.852443 29777 net.cpp:425] relu4 <- pool4
I0408 22:04:45.852454 29777 net.cpp:386] relu4 -> pool4 (in-place)
I0408 22:04:45.852825 29777 net.cpp:141] Setting up relu4
I0408 22:04:45.852854 29777 net.cpp:148] Top shape: 40 100 1 30 (120000)
I0408 22:04:45.852860 29777 net.cpp:156] Memory required for data: 136729920
I0408 22:04:45.852866 29777 layer_factory.hpp:77] Creating layer ip1
I0408 22:04:45.852886 29777 net.cpp:91] Creating Layer ip1
I0408 22:04:45.852895 29777 net.cpp:425] ip1 <- pool4
I0408 22:04:45.852907 29777 net.cpp:399] ip1 -> ip1
I0408 22:04:45.867481 29777 net.cpp:141] Setting up ip1
I0408 22:04:45.867516 29777 net.cpp:148] Top shape: 40 500 (20000)
I0408 22:04:45.867522 29777 net.cpp:156] Memory required for data: 136809920
I0408 22:04:45.867538 29777 layer_factory.hpp:77] Creating layer relu1
I0408 22:04:45.867549 29777 net.cpp:91] Creating Layer relu1
I0408 22:04:45.867555 29777 net.cpp:425] relu1 <- ip1
I0408 22:04:45.867583 29777 net.cpp:386] relu1 -> ip1 (in-place)
I0408 22:04:45.867825 29777 net.cpp:141] Setting up relu1
I0408 22:04:45.867853 29777 net.cpp:148] Top shape: 40 500 (20000)
I0408 22:04:45.867859 29777 net.cpp:156] Memory required for data: 136889920
I0408 22:04:45.867866 29777 layer_factory.hpp:77] Creating layer ip2
I0408 22:04:45.867883 29777 net.cpp:91] Creating Layer ip2
I0408 22:04:45.867897 29777 net.cpp:425] ip2 <- ip1
I0408 22:04:45.867910 29777 net.cpp:399] ip2 -> result
I0408 22:04:45.868070 29777 net.cpp:141] Setting up ip2
I0408 22:04:45.868119 29777 net.cpp:148] Top shape: 40 2 (80)
I0408 22:04:45.868125 29777 net.cpp:156] Memory required for data: 136890240
I0408 22:04:45.868135 29777 layer_factory.hpp:77] Creating layer result_ip2_0_split
I0408 22:04:45.868145 29777 net.cpp:91] Creating Layer result_ip2_0_split
I0408 22:04:45.868155 29777 net.cpp:425] result_ip2_0_split <- result
I0408 22:04:45.868162 29777 net.cpp:399] result_ip2_0_split -> result_ip2_0_split_0
I0408 22:04:45.868175 29777 net.cpp:399] result_ip2_0_split -> result_ip2_0_split_1
I0408 22:04:45.868242 29777 net.cpp:141] Setting up result_ip2_0_split
I0408 22:04:45.868254 29777 net.cpp:148] Top shape: 40 2 (80)
I0408 22:04:45.868262 29777 net.cpp:148] Top shape: 40 2 (80)
I0408 22:04:45.868265 29777 net.cpp:156] Memory required for data: 136890880
I0408 22:04:45.868271 29777 layer_factory.hpp:77] Creating layer softmax
I0408 22:04:45.868293 29777 net.cpp:91] Creating Layer softmax
I0408 22:04:45.868297 29777 net.cpp:425] softmax <- result_ip2_0_split_0
I0408 22:04:45.868309 29777 net.cpp:399] softmax -> softmax
I0408 22:04:45.868732 29777 net.cpp:141] Setting up softmax
I0408 22:04:45.868762 29777 net.cpp:148] Top shape: 40 2 (80)
I0408 22:04:45.868768 29777 net.cpp:156] Memory required for data: 136891200
I0408 22:04:45.868774 29777 layer_factory.hpp:77] Creating layer accuracy
I0408 22:04:45.868788 29777 net.cpp:91] Creating Layer accuracy
I0408 22:04:45.868793 29777 net.cpp:425] accuracy <- result_ip2_0_split_1
I0408 22:04:45.868800 29777 net.cpp:425] accuracy <- labelNOorN2O_irdata_1_split_0
I0408 22:04:45.868810 29777 net.cpp:399] accuracy -> accuracy
…
